submissions/team-members/Teslim-Adeyanju/model_checkpoints/best_model.pth (torch, 14649 bytes, 5 tensors)

model.0.weight f4 [64, 11]
0.0292376 0.010162309 -0.11065173 0.22966962 -0.0936816 0.59227747 -0.20909226 0.12351927
0.87626576 0.12506641 0.8068578 -0.07790354 0.042383548 -0.007922582 0.05721764 -0.070813775
0.7497837 0.037805125 0.1137097 0.6273389 0.16796972 0.45412156 -1.1525098e-38 -4.899673e-38
-0.0035835307 -0.00297708 -0.00087765406 4.984864e-38 -6.7988877e-38 -2.629667e-38 -4.4305666e-38 -1.9277286e-38
8.270385e-39 -0.022136513 -0.28827733 -0.014634681 -0.011164972 0.034103993 -0.050988488 -0.07692139
-0.026222194 -0.56111884 0.021552563 -0.19397809 -0.023381976 -0.09965578 0.001257138 -0.03447419
-0.0025117018 -0.08281929 -0.18789163 -0.01256637 -0.015243712 0.00428097 0.011377115 0.093662135
0.08605335 -0.028529767 0.19840431 -0.24818932 -0.44711772 -0.05414117 -0.21394987 -0.541623
0.016868196 -0.25443563 0.20561415 -0.053863883 -0.2474185 -0.16267556 0.21333393 -0.24298157
0.08721261 -0.08519713 -0.56862545 -0.49166334 -0.3825296 0.025165005 -0.034203462 0.20495781
-0.22963262 -0.1837948 -0.0187569 -0.09019178 -0.0778112 -0.10450239 0.03675898 -0.07708676
-0.22495417 -0.23958704 -0.0062460057 -0.20272914 0.109630264 0.061595835 -0.40153876 -0.27865958
0.35212573 -0.2611509 0.046942305 -1.1672949e-10 4.5244412e-26 -0.002805017 -0.00020502674 -0.0006584696
-1.214429e-13 -1.0813546e-10 8.490358e-25 8.928139e-39 8.042193e-34 -1.4848772e-38 0.05609672 -0.1044235
0.062189538 -0.4213796 -0.043411314 -0.015699532 0.07507892 0.010004795 0.06834075 0.022885116
-0.0117013585 1.8111767e-23 1.7535455e-23 -0.0020858066 -0.00019975468 -0.002923984 -2.33333e-23 -2.5850322e-23
-8.364528e-24 4.8304545e-24 -1.3729941e-23 -2.089373e-24 -4.4181968e-07 2.6755282e-07 -0.0008156262 -0.020498652
-0.0011770566 -5.420474e-07 1.9326782e-07 -5.2428764e-08 1.3029782e-07 3.6435676e-08 -5.085449e-07 -0.38515532
-0.48759815 -0.106857546 -0.0055470904 0.07884243 0.82822025 -0.2709355 0.095147625 0.21358007
0.03594375 0.058035403 0.1681426 0.14710723 0.052720428 -0.00037301617 -0.018129207 -0.8990483
0.20164526 0.19652422 -0.51297456 -0.23571023 -0.038240723 0.08289379 -0.06231013 0.24598648
-0.00286718 -0.20130563 -1.0741261 -0.065079056 -0.049195353 -0.7145095 -0.009045428 -0.5868471
-0.27153242 0.01876666 0.21152808 -0.37194628 0.053773217 -0.3150463 -0.13262612 -0.2523618
0.23047917 -0.025851164 0.40342072 -0.0025785598 -0.0006695867 -0.030997936 -0.00971988 -0.06253909
-8.403727e-05 -0.0026322182 0.000742336 -0.0025474434 -0.0048430376 -0.0040522665 -0.0111944415 -0.05807114
-0.30644462 -0.20644781 0.22864923 0.061861917 0.0915207 -0.06489771 -0.068465404 -0.06428274
-0.17547333 0.16291195 0.2119785 0.2013128 -0.055708524 -0.19096029 -0.03649893 0.15021864
-0.24531962 -0.07013516 -0.061132226 -0.25950393 0.18715876 0.09881396 -0.030692816 -0.01917388
-0.040007457 0.37986585 0.08265508 0.26096833 -0.60156965 -0.43892622 -0.32153362 0.20437652
0.39115557 0.10961291 -0.0019368244 -0.069069274 -0.7514815 -0.15792547 -0.1307335 -0.7950592
0.10858997 -0.49211684 -2.784217e-11 -7.625484e-23 -0.009207582 -0.01775706 -0.010636875 -1.1250477e-09
-5.634029e-14 3.6333124e-16 1.2845575e-10 7.643509e-34 2.168002e-20 -0.18133228 0.050809123 -0.22834511
00000000: b183 ef3c d07f 263c 609d e2bd 832e 6b3e
00000010: 24dc bfbd 7f9f 173f 481c 56be acf7 fc3d
00000020: f452 603f 6911 003e 3c8e 4e3f e48b 9fbd
00000030: 5f9a 2d3d b8cd 01bc 0b5d 6a3d d006 91bd
00000040: d3f1 3f3f 8cd9 1a3d a2e0 e83d 4899 203f
00000050: 4100 2c3e 9f82 e83e 497f 7d80 bd61 8581
00000060: abd9 6abb 1d1b 43bb 5e12 66ba 6fb3 8701
00000070: 5515 b981 352c 0f81 1639 7181 3be9 d180
00000080: 780e 5a00 a257 b5bc 1699 93be 4dc6 6fbc
00000090: 49ed 36bc a1b0 0b3d 4ed9 50bd f688 9dbd
000000a0: edcf d6bc 7ca5 0fbf 008f b03c 31a2 46be
000000b0: 8f8b bfbc 5418 ccbd 8dc6 a43a cf34 0dbd
000000c0: 5d9b 24bb 299d a9bd aa66 40be 2de3 4dbc
000000d0: c3c0 79bc 6147 8c3b 1467 3a3c efd1 bf3d
000000e0: bd3c b03d 42b7 e9bc 802a 4b3e 5725 7ebe
000000f0: 9dec e4be 22c3 5dbd ad15 5bbe cea7 0abf
00000100: 2c2f 8a3c 6345 82be 848c 523e 60a0 5cbd
00000110: 465b 7dbe 6c94 26be 3674 5a3e 29d0 78be
00000120: 869c b23d d57b aebd 7091 11bf 4cbb fbbe
00000130: ebda c3be d726 ce3c ee18 0cbd 76e0 513e
00000140: d024 6bbe b434 3cbe 12a8 99bc 78b6 b8bd
00000150: 7a5b 9fbd 5905 d6bd 9690 163d aadf 9dbd
00000160: 635a 66be 4e56 75be 4bab ccbb 3a98 4fbe
00000170: d585 e03d ea4b 7c3d 7d96 cdbe 78ac 8ebe
00000180: d349 b43e 92b5 85be 9346 403d 6e58 00af
00000190: 1b0a 6015 60d4 37bb 72fc 56b9 269d 2cba
000001a0: 88bb 08aa daca edae c661 8317 0538 6100
000001b0: b59f 8508 56b0 a180 adc5 653d fddb d5bd
000001c0: 75ba 7e3d 11bf d7be 10d0 31bd 4e9c 80bc
000001d0: fac2 993d 27eb 233c 3cf6 8b3d 9179 bb3c
000001e0: 0eb7 3fbc 902a af19 af97 a919 07b2 08bb
000001f0: 3d75 51b9 50a0 3fbb 74aa e199 4c02 fa99
00000200: 23cb 2199 81de ba18 b0c9 8499 4ca8 2198
00000210: 3c33 edb4 2ea4 8f34 bfcf 55ba caec a7bc
00000220: 7747 9aba 3781 11b5 0e85 4f34 092e 61b3
00000230: fee7 0b34 737d 1c33 f082 08b5 1433 c5be
00000240: 77a6 f9be 21d8 dabd 5ec4 b5bb 2478 a13d
00000250: 3e06 543f 0fb8 8abe c2dc c23d bcb4 5a3e
00000260: c139 133d 88b6 6d3d 932d 2c3e 47a3 163e
00000270: 60f1 573d 6291 c3b9 b483 94bc 0828 66bf
00000280: 187c 4e3e a53d 493e 4d52 03bf 065e 71be
00000290: 4ea2 1cbd 38c4 a93d e838 7fbd e1e3 7b3e
000002a0: 4ce7 3bbb 1023 4ebe f77c 89bf 2b48 85bd
000002b0: 1181 49bd 18ea 36bf 4633 14bc 9d3b 16bf
000002c0: 4c06 8bbe 8abc 993c d19a 583e be6f bebe
000002d0: 4e41 5c3d c04d a1be 24cf 07be 9135 81be
000002e0: bb02 6c3e d2c5 d3bc 298d ce3e 0efd 28bb
000002f0: 3487 2fba 62ef fdbc 2240 1fbc 7f14 80bd
00000300: 2a3d b0b8 4b81 2cbb 5399 423a 02f3 26bb
00000310: 58b2 9ebb e0c8 84bb e468 37bc 01dc 6dbd
00000320: 4fe6 9cbe 0e67 53be 0623 6a3e ec62 7d3d
00000330: 346f bb3d 17e9 84bd 9737 8cbd aba6 83bd
00000340: 48af 33be 64d2 263e e410 593e f124 4e3e
00000350: 9f2e 64bd 188b 43be e77f 15bd ead2 193e
00000360: 1135 7bbe 06a3 8fbd c965 7abd b3dd 84be
00000370: 8ca6 3f3e f95e ca3d 806f fbbc 8a12 9dbc
00000380: dcde 23bd c77d c23e 1147 a93d a49d 853e
00000390: 7800 1abf f0ba e0be 0ea0 a4be 1448 513e
000003a0: 8b45 c83e bc7c e03d 0bdd fdba 3174 8dbd
000003b0: 1761 40bf 37b7 21be 01df 05be 0089 4bbf
000003c0: 6b64 de3d bdf6 fbbe fee6 f4ad 765f b89a
000003d0: 66db 16bc 4177 91bc 4a46 2ebc 19a0 9ab0
000003e0: efbb 7da9 3a72 d125 143d 0d2f c9ff 7d08
000003f0: 12c3 cc1e 2baf 39be 3a1d 503d 4dd3 69be

model.0.bias f4 [64]
-0.14179644 -0.36457855 -2.9960083e-38 0.014603532 -0.12642334 0.07835767 -0.025142431 0.017739298
0.045882683 -2.2258099e-20 0.046811443 -2.9425356e-24 1.9143478e-07 -0.42849892 -0.1438424 0.058067765
-0.12986708 -0.00042831575 0.097845204 0.15297148 0.20894936 0.10307825 -1.434045e-22 -0.20172602
-0.09570206 0.023777228 0.096727155 -2.973535e-38 -0.38688868 -0.020847647 0.09824347 -2.9578849e-05
0.015215311 -0.19096175 0.1262162 0.053289358 0.35508415 -0.010914204 0.24395968 0.3100905
-0.22524491 -0.008931274 0.0009876669 -0.11306515 -0.18823233 0.13605362 0.24183339 0.033822306
-0.017207762 0.061232906 0.28852382 -2.5004377e-07 -0.031250533 0.26704416 -0.16541113 0.0561221
-0.23004474 0.1851632 -0.14691314 -0.34968126 -0.4271558 0.012241309 0.12698603 -0.43468282
00000000: 1633 11be 0aaa babe 431e 2381 a743 6f3c
00000010: 1f75 01be fc79 a03d 80f7 cdbc 0152 913c
00000020: 7bef 3b3d c838 d29e 5bbd 3f3d ecaa 6398
00000030: 318d 4d34 3664 dbbe 6c4b 13be 77d8 6d3d
00000040: e0fb 04be 918f e0b9 1163 c83d 8ea4 1c3e
00000050: d2f6 553e b11a d33d 8b5d 2d9b 4491 4ebe
00000060: 71ff c3bd 76c8 c23c e318 c63d 07e5 2181
00000070: 4616 c6be afc8 aabc df33 c93d 1820 f8b7
00000080: a449 793c 7a8b 43be d23e 013e f145 5a3d
00000090: 97cd b53e 7dd1 32bc 91d0 793e 2fc4 9e3e
000000a0: 9aa6 66be 7a54 12bc 9a74 813a b48e e7bd
000000b0: fabf 40be a451 0b3e 2ca3 773e 4289 0a3d
000000c0: 4bf7 8cbc 5bcf 7a3d 65b9 933e c13d 86b4
000000d0: 8f00 00bd 03ba 883e 8961 29be 4ae0 653d
000000e0: d990 6bbe 6c9b 3d3e 6670 16be 6c09 b3be
000000f0: 2ab4 dabe c58f 483c a008 023e bf8e debe

model.3.weight f4 [32, 64]
-0.441071 0.13968167 -5.980827e-38 0.043203734 -0.05313229 -0.08398651 -0.02745134 -0.033131756
-0.2559602 -2.2374493e-38 0.0031694204 0.00026701766 -2.3846745e-12 0.033438075 -0.03125564 -0.1702052
-0.29854208 3.2674722e-22 -0.113871545 -0.06963979 -0.15040845 0.049143706 -1.8869975e-10 -0.1124126
-0.15286298 -0.20911159 -0.042163752 1.6118455e-38 0.015974734 -0.035709403 -0.034063134 0.013353321
-0.070664294 -0.05606339 -0.08251055 -0.06363416 0.012504148 -0.008179435 -0.016080733 0.039297655
0.090787835 0.018143618 -8.3553095e-05 -0.0832668 0.040237326 0.016963439 -0.08732116 -0.10297072
0.25395283 0.1935971 -0.11255644 0.0120357275 -0.039510604 0.20759024 -0.20756085 -0.0781272
-0.053088345 0.16137788 -0.20309092 -0.03074774 0.14304681 -0.30690217 0.02425254 0.024411712
-0.23849587 4.9744296e-05 -0.00018595128 0.042388342 -0.08638782 -0.0056091477 0.022667458 -0.05909483
0.00703608 -0.00076585833 -0.010522785 8.167242e-08 3.5888202e-11 0.0014706415 -0.15134293 -0.2483072
0.02763924 2.0512894e-07 -0.13957408 -0.06772545 -0.15113217 -0.0501884 -0.0036857356 0.0702097
-0.2752502 0.032072425 0.045741085 7.5233175e-14 0.10274309 -0.07684229 -0.18241538 0.0132078
-0.11701398 0.09546106 0.036996134 0.07614522 -0.15954569 -0.05204079 -0.20071779 0.09508834
-0.0027417259 0.020875048 -0.011869047 -0.17332058 0.07042104 -0.06520628 -0.2759554 -0.16616024
0.06538202 0.13168402 0.042396244 0.010728192 0.0068177665 0.17982855 0.08606605 -0.024499727
0.010164621 0.1492348 -0.01968457 -0.015032822 0.061562255 -0.024743672 0.08177078 0.05321284
-0.08009107 -0.091164514 -7.704036e-39 -0.041209124 0.069014475 -0.009771857 0.030532649 0.013320324
-0.012092263 -9.19762e-09 -0.0004319813 2.02593e-38 2.9484732e-38 -0.084440686 -0.10665909 0.050211836
0.025562901 1.2961766e-38 0.006946588 -0.02191969 0.0027518896 0.015531276 1.8388117e-38 -0.02960825
-0.0046445713 -0.041201994 -0.137175 6.743508e-39 0.04956288 -0.07411519 1.7202623e-38 5.35992e-40
-0.018792178 -0.07817879 0.054390375 -0.08123357 -0.11339868 -0.017845549 -0.051784616 -0.0349444
-0.10313339 0.018871292 8.800236e-05 -0.03921724 -0.08635688 -0.12239415 -0.0029918265 -0.047092456
-0.100300156 -0.018406512 -0.10596807 4.0814006e-38 -0.11824071 -0.06660983 -0.038890224 -0.076735586
0.036639605 -0.008838139 -0.03483545 -0.09019598 -0.055660345 -0.09554543 0.026885869 -0.03778252
-0.24403311 0.048010405 -1.8030397e-08 0.030933054 -0.018680803 -0.034170613 -0.30217952 -0.057677068
-0.122782364 2.0364165e-38 5.5439246e-38 4.7029307e-06 7.851016e-12 0.033499245 0.08149715 -0.36664465
-0.47794268 -1.1174367e-38 -0.110998176 -0.130672 -0.08205265 0.009461545 -0.00010457081 0.0146511635
-0.41332418 -0.10512204 -0.118717104 1.1367692e-38 0.06684613 -0.012281177 -0.021180447 0.017775014
-0.12530355 -0.11592148 0.07750077 -0.16468436 -0.13591945 -1.2250689e-11 -0.12852426 -0.23067738
0.04582017 -0.02589547 -0.0075444863 1.0434273e-11 -0.021376956 0.022808375 -0.11192874 -0.07458883
-0.111291476 -0.089534916 -0.100373834 0.002475945 -0.23148455 -0.06510477 -0.013602893 0.04405179
-0.0010106944 -4.632028e-28 -0.47811216 0.18118978 -0.013812561 -0.3965698 -0.119784534 -0.007999903
00000000: 0fd4 e1be b608 0f3e 48d0 a281 66f6 303d
00000010: 3ea1 59bd 1f01 acbd a2e1 e0bc 2ab5 07bd
00000020: 370d 83be fca2 f380 0db6 4f3b 81fe 8b39
00000030: 7ace 27ac 5df6 083d ea05 00bd 464a 2ebe
00000040: 82da 98be af81 c51b 7c35 e9bd 4e9f 8ebd
00000050: ac04 1abe e94a 493d 427a 4faf 9438 e6bd
00000060: 1d88 1cbe 5921 56be e6b3 2cbd b283 af00
00000070: 72dd 823c 0644 12bd c985 0bbd e3c7 5a3c
00000080: 71b8 90bd baa2 65bd 4bfb a8bd a052 82bd
00000090: 33de 4c3c 0903 06bc bebb 83bc 94f6 203d
000000a0: f9ee b93d eda1 943c 3a39 afb8 c987 aabd
000000b0: e5cf 243d e9f6 8a3c 70d5 b2bd 50e2 d2bd
000000c0: 1b06 823e 513e 463e fe83 e6bd 8031 453c
000000d0: dfd5 21bd 8992 543e d58a 54be 2701 a0bd
000000e0: 2a73 59bd 3e40 253e 11f7 4fbe afe2 fbbc
000000f0: dd7a 123e 4822 9dbe 43ad c63c 12fb c73c
00000100: 4338 74be 88a4 5038 ebfb 42b9 669f 2d3d
00000110: 19ec b0bd f1cc b7bb 1bb1 b93c 6c0d 72bd
00000120: eb8e e63b e2c3 48ba c267 2cbc e363 af33
00000130: 86d6 1d2e 8ac2 c03a a4f9 1abe 3e44 7ebe
00000140: b06b e23c 6a41 5c34 82ec 0ebe a4b3 8abd
00000150: 64c2 1abe 5a92 4dbd 628c 71bb 1aca 8f3d
00000160: 98ed 8cbe 605e 033d 015b 3b3d f968 a929
00000170: f86a d23d 7e5f 9dbd 19cb 3abe 8765 583c
00000180: 07a5 efbd 1781 c33d 4289 173d 06f2 9b3d
00000190: f25f 23be b928 55bd f788 4dbe adbd c23d
000001a0: 87ae 33bb 2602 ab3c 6476 42bc f37a 31be
000001b0: e838 903d df8a 85bd 074a 8dbe e925 2abe
000001c0: 02e7 853d 2dd8 063e afa7 2d3d 4cc5 2f3c
000001d0: 9267 df3b fa24 383e 6643 b03d a7b3 c8bc
000001e0: 8389 263c 02d1 183e 8941 a1bc 3a4c 76bc
000001f0: b428 7c3d 3eb3 cabc 7077 a73d b5f5 593d
00000200: c906 a4bd 76b4 babd b8e3 5380 e6ca 28bd
00000210: 7657 8d3d 241a 20bc 9b1f fa3c 7d3d 5a3c
00000220: a11e 46bc 9003 1eb2 8c7b e2b9 b09a dc00
00000230: b887 2001 3def acbd 1570 dabd edaa 4d3d
00000240: 4a69 d13c 2124 8d00 34a0 e33b ec90 b3bc
00000250: 0c59 343b e576 7e3c 973a c800 008d f2bc
00000260: 7d31 98bb 6cc3 28bd 9a77 0cbe 286e 4900
00000270: 7202 4b3d b4c9 97bd ea51 bb00 21d6 0500
00000280: 0ef2 99bc 341c a0bd 71c8 5e3d c95d a6bd
00000290: 913d e8bd d430 92bc 1b1c 54bd dc21 0fbd
000002a0: 9937 d3bd f897 9a3c e88d b838 42a2 20bd
000002b0: e0db b0bd c9a9 fabd 8512 44bb 05e4 40bd
000002c0: 2b6a cdbd 41c9 96bc ca05 d9bd 6c36 5e01
000002d0: 2f28 f2bd bc6a 88bd 5b4b 1fbd 8c27 9dbd
000002e0: 6913 163d d7cd 10bc 9eaf 0ebd acb8 b8bd
000002f0: 1afc 63bd 53ad c3bd c13f dc3c d8c1 1abd
00000300: d1e3 79be 8fa6 443d 43e1 9ab2 5167 fd3c
00000310: 7c08 99bc 7cf6 0bbd 46b7 9abe ca3e 6cbd
00000320: 5275 fbbd 02bf dd00 84eb 9601 decd 9d36
00000330: d51d 0a2d 8136 093d fae7 a63d d9b8 bbbe
00000340: e7b4 f4be 97ad 7980 0353 e3bd e1ce 05be
00000350: 380b a8bd 9904 1b3c 074d dbb8 6f0b 703c
00000360: 3a9f d3be 394a d7bd f421 f3bd 80c8 7b00
00000370: a0e6 883d fd36 49bc 9e82 adbc e89c 913c
00000380: 934f 00be 3e68 edbd b9b8 9e3d 04a3 28be
00000390: 782e 0bbe 3384 57ad dd9b 03be b136 6cbe
000003a0: eead 3b3d bd22 d4bc bd37 f7bb ca8f 372d
000003b0: ba1e afbc a1d8 ba3c e53a e5bd 07c2 98bd
000003c0: c9ec e3bd 155e b7bd cc90 cdbd 7743 223b
000003d0: 490a 6dbe a655 85bd abde 5ebc a66f 343d
000003e0: 4779 84ba 7acb 1292 1ecb f4be d089 393e
000003f0: 144e 62bc 320b cbbe 9851 f5bd 0612 03bc

model.3.bias f4 [32]
0.31851855 -0.06765296 -0.080630906 0.45533696 -0.010234706 0.05978897 0.04970101 0.2120556
-0.010021431 0.28501654 -0.06931432 -0.42757127 0.26141405 -0.11522199 0.13131025 0.09022142
0.14276402 0.33296195 -0.270556 0.18729259 0.100030564 0.18929161 -0.07317474 0.1573747
0.18603829 0.24778967 0.32806575 0.35277733 0.06392349 -0.04158956 0.1429745 -0.05756744
00000000: dd14 a33e a38d 8abd d121 a5bd ed21 e93e
00000010: 78af 27bc 47e5 743d 4993 4b3d 1a25 593e
00000020: ee30 24bc b0ed 913e abf4 8dbd 9fea dabe
00000030: 10d8 853e 82f9 ebbd 3276 063e 02c6 b83d
00000040: bb30 123e fd79 aa3e 5186 8abe a1c9 3f3e
00000050: d3dc cc3d a9d5 413e a3dc 95bd d526 213e
00000060: d280 3e3e 93bc 7d3e 3cf8 a73e 3b9f b43e
00000070: 52ea 823d d159 2abd e867 123e d6cb 6bbd

model.5.weight f4 [1, 32]
0.14318524 0.07891848 -0.057185326 0.15579876 0.04217521 -0.028845357 0.073707074 0.07516875
0.10463642 -0.0587365 -0.019756235 0.08825021 -0.013349743 -0.024307134 0.16881318 0.026606258
-0.06980444 0.13373238 0.092891276 -0.015143824 0.09226118 -0.09562284 0.06304514 0.11752578
0.12177294 0.1797443 -0.0364012 0.15221596 0.07346249 0.09853248 0.003835409 0.04035773
00000000: 279f 123e 03a0 a13d 293b 6abd b689 1f3e
00000010: eabf 2c3d 194d ecbc bcf3 963d 13f2 993d
00000020: 9f4b d63d af95 70bd d4d7 a1bc 87bc b43d
00000030: e1b8 5abc c11f c7bc 5ddd 2c3e 5ef5 d93c
00000040: a1f5 8ebd 24f1 083e c83d be3d cd1d 78bc
00000050: 6ef3 bc3d e8d5 c3bd cf1d 813d 5bb1 f03d
00000060: 1764 f93d e40e 383e 6d19 15bd 80de 1b3e
00000070: 8173 963d 66cb c93d 7c5b 7b3b 264e 253d
