submissions/team-members/Teslim-Adeyanju/optimized_model.pth (torch, 129589 bytes, 5 tensors)

fc1.weight f4 [224, 11]
00000000: 4aac 933e 3fff 2a3e 59e2 e6bd 0d09 17be
00000010: 231f 7cbe 2bb8 44bd 1b9a 2bbe ac48 aa3c
00000020: 27df ec3d 275b 9fbe 0273 93be 55b0 603e
00000030: c5a0 4abe 218c 263e 6bab 88be c6d3 57be
00000040: f3b6 703e b61c e53d e4d1 9f3d dd6b 073e
00000050: dde6 a3be 2eef 7e3e 186e 55be 067e 193d
00000060: 9398 cfbe 2f2d b83d 7735 513e 6f80 7ebf
00000070: 9fb6 e63e 781f 72be 7ac1 743e a209 7c3c
00000080: d2d5 9e3e ff88 dc3d 3437 46be dd83 34be
00000090: fc3b 4cbd 4b76 2ebe 83c8 cb3b 6e7f 2cbe
000000a0: 177c 573e 7b75 4b3d 9a9f 87be 348f 86bd
000000b0: 3cca a1bd 8e85 01be ecd5 d1be 5211 b33c
000000c0: c8c9 13be 76be ee3d e4fb a23e 39ae 523f
000000d0: ca0b ebbd e8e3 d1be fb9a 623d 64cd 5fbe
000000e0: 8231 c0bb c8d0 44be 8ada bd3c 1bd6 3fbe
000000f0: 407d b1be df48 4bbe c907 f6bd 2ec0 8bbd
00000100: 7538 163e f26b 003f a693 85be 705d 263d
00000110: 97f0 5b3e a14f a2bd 6e4a 83be 5277 bbbd
00000120: e4dc 7b3d 03e1 e53d ae0c 9dbd 9fc8 c4be
00000130: f237 82be c550 083e ff86 6dbd f537 e43c
00000140: 1441 1ebe 5254 323e b483 ecbe af8c aebe
00000150: dddd 3e3e 3350 283e d013 aa3e 46bc 9a3e
00000160: f8e5 973e 0b6d 25bc 5685 7cbe 60d9 92be
00000170: 80e8 e93d d0c5 83be 237b ba3e c64a 3e3d
00000180: dcdd 9dbc f387 943d 7a30 0fbe 4235 f4bd
00000190: 9680 d3be dc9f 01bd 1bdc 24bf fcfa aa3d
000001a0: ebd7 033f ee5e 53be 905c c5be ac86 e73e
000001b0: 5cc2 0f3f 4887 1fbf e1fd 94bd 6e5f f03e
000001c0: 4488 933e 8d90 22bf 782f 04be 08b3 8cbe
000001d0: 408b 4a3e 01da 53bd b23e 87bf 1285 96be
000001e0: 919e f03d c368 043e ea44 21bd 51d9 77be
000001f0: a743 a2bd b24a b43d d3ba 93bd 12d4 253e
00000200: 5ab1 abbd 8cd8 d4be 23a1 3fbe 05d9 8ebd
00000210: 8d50 acbe 78c2 2b3c e3a2 9ebd 6ee8 ae3c
00000220: 4b4a e6bd 4d6b 003e 4338 50be ed74 0d3e
00000230: 2a9b d13e 2b67 71bc 8308 853e 2e9b 52bc
00000240: bee0 4f3e 072f 1abe b897 303e 76c5 b8bd
00000250: 175d 56bf 4885 eebd e395 c7be 2907 b0be
00000260: 5b20 8ebe 6e15 c8be 7c8e 4dbe dd3c 8839
00000270: fd8c 62be e1e4 5f3b d7b5 263e ffbc 0d3f
00000280: becf 34be b755 2e3d 4403 2ebf 1e6b 92be
00000290: 55dc 6fbe 2ab6 813e 6271 3abe c97c ca3c
000002a0: 4276 71be 7b43 ed3d 49c7 413f a1ac 4f3e
000002b0: 8c14 1f3e e486 863e 9c5e 123f 5a4b 4dbe
000002c0: 63c9 3cbe af75 6ebe 6d95 47be 22cb 09bd
000002d0: 912c 96be bde6 af3d 1766 3fbe ae62 5cbe
000002e0: 5cef 26be 245a 9d3d 92e6 733e 8c83 7fbd
000002f0: 4d69 ce3d 7811 873c 719c f7bc 50c0 7abe
00000300: 6c0e 15be 7a69 b6be 6e3f 93be c2ba 223e
00000310: dab0 1dbe 0935 c83e 7206 7cbd 965d db3e
00000320: b711 efbd f411 7ebe ad63 213e b829 51be
00000330: a229 abbe b3bb d13e f5a3 12be a2e1 e53d
00000340: 15a6 08bf 894b 2aba e3b2 3ebf c997 853d
00000350: d8f1 1cbf 7de1 70bc 9b80 093f 8402 febc
00000360: 50a8 00be 094d 903f e439 4ebe f966 e83e
00000370: 3e0e d1be bb5e af3e 9374 18bd 73e5 5dbd
00000380: 2470 973d cffa 33bf e144 2b3d 2335 f13e
00000390: db9e 85be 2e36 a6be a5e6 19bf 28a4 e5be
000003a0: 072e f8bd 763c 58be 0d19 153d ce5b b73d
000003b0: bd01 2fbf 4065 8d3e 6d61 f3be a2d3 313e
000003c0: 0438 ea3d 8057 aa3e 755a 14bf bc5e 4f3e
000003d0: 02c6 f9be 1956 de3c 09c2 d3be 9429 ce3e
000003e0: 3719 5dbd 0719 593e 80de af3e cfad 363e
000003f0: afc0 693e 86ab 8bbd 338f 523d 39b0 633e
0.28842384 0.16698931 -0.11273641 -0.14749546 -0.24621253 -0.0480272 -0.16758005 0.020786606
0.115660004 -0.3112423 -0.28798681 0.21942265 -0.19787891 0.16264392 -0.26693282 -0.21076879
0.2350729 0.11187117 0.07803705 0.1322474 -0.32012072 0.24895927 -0.20842779 0.0374737
-0.40546092 0.08992993 0.20430551 -0.99414724 0.45061204 -0.23644817 0.2390193 0.015383156
0.31022507 0.107683174 -0.19356996 -0.17628427 -0.049861893 -0.17037313 0.006218971 -0.16845486
0.2104343 0.049672585 -0.26488954 -0.065702826 -0.07899901 -0.12648603 -0.40983522 0.021858845
-0.14432442 0.11657421 0.31832802 0.8229709 -0.11476858 -0.4099419 0.055323582 -0.21855694
-0.005865277 -0.19220269 0.023175497 -0.18734019 -0.3466587 -0.19852017 -0.12013204 -0.06823765
0.14669974 0.5016471 -0.2608921 0.040616453 0.21478496 -0.07925344 -0.25642723 -0.09153618
0.061489955 0.11224558 -0.07668434 -0.38434312 -0.25433308 0.13312061 -0.05799007 0.027858714
-0.15454513 0.17414978 -0.46194232 -0.34091708 0.18639322 0.16436844 0.3321824 0.30221766
0.2966764 -0.010096799 -0.24660239 -0.2868147 0.11421299 -0.25736856 0.3642207 0.04645803
-0.01927083 0.07252493 -0.13983336 -0.119242206 -0.4130904 -0.031646594 -0.64398354 0.08348653
0.5150134 -0.20641682 -0.38547182 0.45219934 0.56155944 -0.623158 -0.07274986 0.46947807
0.288149 -0.63501817 -0.12908733 -0.2748034 0.19779682 -0.051721577 -1.0566008 -0.293984
0.11748994 0.12930588 -0.039372362 -0.24203993 -0.0792306 0.088033095 -0.07213368 0.1619418
-0.083834365 -0.41571462 -0.18713813 -0.06974987 -0.33655205 0.010483377 -0.07745912 0.021351065
-0.11244639 0.12540932 -0.20333962 0.13814135 0.40938693 -0.01473407 0.25983056 -0.0128543805
0.20300576 -0.15057002 0.17245376 -0.09022038 -0.83735794 -0.11646515 -0.38981542 -0.34380463
-0.2775906 -0.3907885 -0.20073885 0.00025985288 -0.22124095 0.0034163522 0.16280304 0.5536651
-0.17657372 0.042562213 -0.6797373 -0.2859735 -0.23423894 0.25334293 -0.18207315 0.024717705
-0.23580268 0.115851365 0.7569471 0.20280696 0.15535182 0.26274788 0.5717561 -0.20048276
-0.18436198 -0.2328708 -0.19490595 -0.03364099 -0.29330876 0.08588932 -0.18691288 -0.21522018
-0.16302246 0.076832086 0.23818424 -0.062381312 0.10078678 0.016487822 -0.030225964 -0.24487424
-0.14556283 -0.35627347 -0.2875933 0.15891555 -0.15399495 0.39102963 -0.061529584 0.42844838
-0.11673301 -0.24811536 0.1576068 -0.2042607 -0.334302 0.40963516 -0.14320357 0.11224677
-0.5337842 -0.0006496241 -0.7449171 0.06523091 -0.61306524 -0.014702198 0.5371186 -0.031007059
-0.12564206 1.1273509 -0.20139271 0.45391062 -0.40831178 0.3425196 -0.03722055 -0.054173898
0.07394436 -0.7030458 0.041813735 0.47110853 -0.2609776 -0.3246321 -0.6011756 -0.44851804
-0.12118154 -0.21116814 0.036400843 0.08953057 -0.6836203 0.2761631 -0.47535267 0.17365888
0.114364654 0.33269882 -0.57950526 0.20250982 -0.4878388 0.027140664 -0.41358975 0.40266097
-0.053979125 0.21200953 0.34349442 0.1783974 0.22827409 -0.06819825 0.051406097 0.22235192

fc1.bias f4 [224]
00000000: 6ab1 833e 8489 5bbc cb5b 2abe 252d 49be
00000010: 66e9 7cbd 1094 bdbd c5e1 e2bd 6df8 5c3e
00000020: 54e3 2fbe 263c ef3d bbf7 553e 519b 90bc
00000030: 0ced c9be 4c45 8cbe 5598 55be 22fb 583c
00000040: 714d 193e e589 b6be a94d ff3c 2b3d a93d
00000050: a660 a9be 836f 1c3d b4bb 65be 4855 f03d
00000060: 15dc 603d 29c0 17be 5e42 aa3d 9ecf ea3c
00000070: a354 d93c d01f ab3e c877 80be c339 fbb9
00000080: 39b1 b2be 251e 893e df61 bdbd c726 8cbe
00000090: 5355 4f3d b513 f43e 158f a0bc 7b36 95be
000000a0: f5f3 dc3e 1f16 9cbe 2644 ad3e 0045 da3d
000000b0: 587d 5b3e 03fa f4be 6a9c cc3e f617 b5be
000000c0: c0d0 903e a032 73bd 8788 cabe 49a6 8bbe
000000d0: 0b7e 72be 7527 5cbb d626 983d f0e8 c03e
000000e0: 812e a33e fd8b 8d3e 96b2 7dbe 0002 febe
000000f0: 3cf7 b2bd 2647 19be 2401 65be b569 323b
00000100: 718f 5fbe 9ce6 3c3e a51e 213e 01fc ee3c
00000110: b303 3b3e 018e e33d 0e7a 0f3e 64a4 bbbe
00000120: 2289 c93d bd01 a43c 5d2b 70bd 823e fabd
00000130: 69dc 5dbe 6cb1 4a3d 7c61 53bd d87e 96be
00000140: f78b 28bd 1898 6e3e 8a25 833d a2ec e83d
00000150: cf1b f63e 2844 5cbd 009d 03bf ca23 613e
00000160: cdd8 d4bd 8016 163e 4885 82be 88da 23be
00000170: 8797 883e fa8a dcbe cfe8 8d3e 0345 8a3d
00000180: 7232 4d3e 0e6c 38be e5ad 4fbd ecfc 2e39
00000190: e04c 213e 8015 633c ce6a 323e 82cd c53d
000001a0: e7ba fcbe 4a80 afbd 333a b2be d77d 973e
000001b0: 87a0 45be 4fe4 1abe e82c 13bc 518f 42be
000001c0: db6e 90be ab9a 3ebe 3e15 ebbd ffbe 57be
000001d0: 87c3 53be 663f 5b3e 2306 6dbe 8578 933d
000001e0: b6ed 923e d170 e23b ecd5 873e 0fbe 89be
000001f0: 2589 efbe b223 b2be 478f 3abd 20bb 223d
00000200: db5b af3d 9989 373e f069 5ebe a27a db3e
00000210: 9325 c13d 7b95 86bd 0af3 40be 35f0 e9be
00000220: 67f5 853d d313 7cbe be77 e33e f0bf 5cbe
00000230: d87b fa3c 8618 a53d b5bc a8be 7c5a 00be
00000240: fd60 4abe f7a6 c5be c482 33be bfc9 843c
00000250: 109b e2be 9be0 6e3e cce0 5ebd 0e23 6e3e
00000260: 15a1 8dbe 54df a7be efea b4bd 8f50 f7bb
00000270: cfe0 263e 82a3 6ebd b0ed 7abe 88d5 4b3e
00000280: 3bc1 963d 2b3b 8e3e 6918 64be dcd7 593d
00000290: bf75 a4be c9a7 803c fa1a 6cbe 6d75 653e
000002a0: c495 c33d 24e5 ee3d 8190 063c 0de0 1f3e
000002b0: de58 fcbc f2c4 4dbe 4843 a7bd 320d 463e
000002c0: 9325 5abe cb9b cbbe fc34 4dbe 6b77 81be
000002d0: e211 c03d c7cd 9a3e ed20 f03d 7e59 c83b
000002e0: 9bac e3bd 091c adbd 24d0 6c3e f94b afbe
000002f0: 583a a0be 3c74 543e 65c5 25be 0e60 87be
00000300: 0825 2f3d c787 eebd ce66 96be 1081 79be
00000310: af56 e23d b435 023e 813e 84bd 7e9f 84be
00000320: ad8c a3bd b635 82be 36fd 693e 8cc4 423d
00000330: e001 5abe 6629 67be 2397 a1bd 4e7d 5d3e
00000340: cf4c 3ebd e2e0 c43d 08ff 88bc 68dd 2b3c
00000350: 22c6 5abe 2249 de3e 006a ca3e dc62 cdbd
00000360: b4bd 0dbd 6e10 96be e32b a03d 900b 27be
00000370: eca1 a3be c4f3 793d 6c86 c2be f12d 50be
0.25721294 -0.0133994855 -0.16636579 -0.19646128 -0.061746024 -0.09256756 -0.11078218 0.21579142
-0.17176563 0.11681394 0.20895283 -0.017652186 -0.39438665 -0.2739662 -0.20858891 0.0132434685
0.14970948 -0.3565208 0.031164961 0.0826362 -0.3308155 0.038192283 -0.22434884 0.11735016
0.054897387 -0.14819397 0.0831344 0.028663453 0.026529616 0.3342271 -0.25091386 -0.00047917487
-0.34900835 0.2678081 -0.09247183 -0.27373335 0.05061848 0.47671285 -0.019599477 -0.29143128
0.43154874 -0.30485627 0.33841056 0.10657692 0.21434534 -0.47846994 0.39963084 -0.35369843
0.28284264 -0.05937445 -0.39557287 -0.27275303 -0.23680894 -0.0033592854 0.07429282 0.37677717
0.31871417 0.27645865 -0.24775156 -0.496109 -0.087385625 -0.14968547 -0.22363716 0.002722365
-0.21832062 0.18447345 0.15734346 0.0291729 0.1826313 0.111110695 0.14011404 -0.36648858
0.09840609 0.02002036 -0.058635104 -0.12218954 -0.21666111 0.04948561 -0.05160664 -0.2939365
-0.041149106 0.23300207 0.064036444 0.11373259 0.4806809 -0.053775936 -0.5141144 0.21986309
-0.10392914 0.1465702 -0.2549231 -0.16001332 0.26678106 -0.4307478 0.2771668 0.06751444
0.20038775 -0.1800997 -0.050702948 0.00016688154 0.15751982 0.0138601065 0.17423555 0.09658338
-0.49361345 -0.08569391 -0.34810027 0.29588196 -0.19299518 -0.15126155 -0.008982874 -0.18999983
-0.28209576 -0.18613689 -0.11478661 -0.21068953 -0.20680057 0.21410903 -0.23146872 0.07200722
0.28696984 0.0069104214 0.26530397 -0.26902816 -0.4678432 -0.34792858 -0.045546796 0.039729238
0.08562442 0.17923583 -0.217201 0.42867 0.09430995 -0.0657148 -0.18842712 -0.45691076
0.065409474 -0.24616937 0.44427294 -0.21557593 0.030576631 0.08061318 -0.32956472 -0.12534517
-0.1976356 -0.38603947 -0.17530352 0.016209481 -0.44258928 0.23327868 -0.0544136 0.2325556
-0.27661958 -0.32787573 -0.088338725 -0.007547445 0.16296695 -0.058261402 -0.24504733 0.19905674
0.073610745 0.27779517 -0.22274937 0.053184375 -0.32121083 0.015705006 -0.23057166 0.22408076
0.0955005 0.11664799 0.008213163 0.15612812 -0.030804094 -0.2009466 -0.0816713 0.19340971
-0.21303396 -0.39767298 -0.20039743 -0.2528642 0.09378411 0.3023512 0.1172503 0.006114184
-0.11116906 -0.08452613 0.23126274 -0.3423765 -0.31294513 0.20747465 -0.16188581 -0.2644047
0.042759925 -0.11646991 -0.2937531 -0.2436564 0.1105169 0.12715799 -0.06457234 -0.25902933
-0.07985816 -0.25431603 0.22850499 0.047550723 -0.21289778 -0.22574386 -0.07890155 0.21629831
-0.04645997 0.096132055 -0.01672317 0.010489799 -0.21364644 0.4341517 0.39533997 -0.100286216
-0.034604743 -0.2930941 0.07820871 -0.16313004 -0.31959474 0.06102349 -0.3799318 -0.20330025

fc2.weight f4 [128, 224]
00000000: ce42 11bd f9ea 303d 3c76 e2bc 11a7 253d
00000010: 19bc 5bbd 1239 76bd f725 9bbd b5d3 3d3d
00000020: 35b5 bd3c a117 60bc f483 b4bd 2a66 213d
00000030: 512e 163c f767 a2be 6591 60bd 8cdf 9d3d
00000040: e9cb 113d b8f5 473d 77e5 abbc 71e4 a2bd
00000050: 89da 94bd e3e8 86bd e877 42bb 8d8c 23be
00000060: 3315 6fbd a760 72bc 21f0 30bd 479e ab3c
00000070: 2b97 a3bb 9160 54be dd0f f6bd 0a89 57bd
00000080: 5a79 a5bd 7c2b 05bd a28f 12bd e338 a93b
00000090: 89b1 cbbc d683 853d fa86 5639 fd9b 83bc
000000a0: 4114 20be 86e7 053d 0694 25bd e3b0 0bbc
000000b0: df0f aa3c 7918 cfbc ec3d 1abb b7d5 043d
000000c0: 1ff1 95bd f725 f4bc eddc 24bd 7ba1 663c
000000d0: 1778 c0bc 3004 cbbe 3e26 34be 41f3 61bd
000000e0: 270b a8bd 4694 6ebe 9c59 823d 10af 95bd
000000f0: 0230 a33d fed7 c9bd f621 17bc 9cfc e83c
00000100: 8b87 463b 4134 1ebd 91a0 d4bc 17e2 abbd
00000110: 4158 cdbc 6a69 5d3d b002 7dbd 6ea7 95bb
00000120: 849c 38be b03c e83c 800f 9fbe 5283 3ebd
00000130: ef28 463c 5997 56bc 3762 2fbe 153c 393d
00000140: 0186 87be 46d6 abbd 2a83 24be a19d ccbc
00000150: 06e8 88bd 94e3 163c ef21 d53c aff7 543d
00000160: 97b8 dabe c8e2 bdbb c660 bdbb 9107 4abe
00000170: 8969 853d ad22 ff3c b473 e0bd cad2 a3be
00000180: 20c5 3dbd f632 a13d ffc3 383d 1f3e 07bd
00000190: 038f bebd fd01 5ebd 0169 65bd ceaf bfbe
000001a0: aba3 8fbd 0ce2 a4bd ed58 e9bd 821e cbbd
000001b0: 2c55 a8bd ec3e 0d3d 0ea7 253c e0c8 57bd
000001c0: 5e65 4fbd 5ba5 edbc d3cf aa3d 7207 16bd
000001d0: edf7 763d 1bfc 5a3d 48da b6bd 0081 773c
000001e0: d62a 7abe 4584 8ebb 4a81 38bd 0993 723d
000001f0: c606 c2b6 a1a4 593d 95a6 833c ea7c 65be
00000200: 51a5 bdbe 550c 863d 618f 85bd 795c 0fbe
00000210: d933 31bf 96a2 553c 85fa a0bc b553 0cba
00000220: 3cc0 12ba 8413 e4bd 3de1 313d aea0 2f3d
00000230: d361 c03d cbd0 b93c e024 d4be f7a8 ae3d
00000240: 24b8 543d 93c0 e43c 10e7 033d 2f87 703c
00000250: 1b8f b03c a1d9 163d 7839 6e3d 2faf 09be
00000260: b282 7ebd 0c94 08bd 4249 bb3c 3f61 0bbd
00000270: c304 ec3c 0a63 01bd 8365 65bd e76d a7bd
00000280: 1634 0ebe 7bb1 593c fdfb 1f3d 1403 14bd
00000290: a9fa 103e e381 f4bd 5e29 9dbb 7b54 40bb
000002a0: dd3b f1bc 699c 99be 989b de3d 2401 dabe
000002b0: 46bc 3fbd 29c6 71bd 90b0 7bbd d644 15bd
000002c0: 4b5f c7be e6c7 67bc 19db b63c fd11 ba3c
000002d0: 20cf 05bd 2e20 b2bc feb9 68bd 0913 67bc
000002e0: 00ce d3bc e99f d33c a173 bebc 0ae3 4f3b
000002f0: f2d9 50bd ac67 3bbd c77a f3bc 65ea 923d
00000300: af0d c23c 94e1 b0bc 9db8 ef3c 7f7f 17bd
00000310: 7b81 debd 7a0b 9fbe ab72 89be 4688 ffbd
00000320: 8aeb 7b3d b82a 3bbd 37a4 93bd e149 f9bd
00000330: 5963 31bd fff1 563d 3d10 48bd 2ec6 cdbb
00000340: 0722 b63c d54a 7e3c cfe5 483d 2b93 a63c
00000350: 2cd4 9bbd 26ad 143d fa9b a1bd a6e1 87be
00000360: c65c edbb d897 86bc 32c0 b6bc 2300 4cbd
00000370: 20d2 bc3c 2099 fc3c 3429 53bd 174c 423c
00000380: ce3c 313c f19d ccbd a6db 63bc 372d efbb
00000390: fbcf dbbc 437b 9ebd 1c80 81bb 6e58 923c
000003a0: d994 7c3d 3d5b ad3b 172e e1bc 7b0c 243d
000003b0: acb3 a9bb 763e 80be 49e6 d5bd c4f3 f1bd
000003c0: 0815 103d a8e4 99bc 71a0 94bd 198f 29bd
000003d0: 7383 29be 30f1 c33c 20ec 93bd cdb0 77bf
000003e0: ef54 f83c ad00 85bc eeb6 b1bc 0827 3fbd
000003f0: 9244 70b9 7626 3fbe 183c 413c 2f0c a6bd
-0.0354641 0.043192837 -0.02764427 0.04044253 -0.05364618 -0.06011302 -0.075756006 0.046344478
0.023157695 -0.013677509 -0.088142306 0.039404072 0.009166316 -0.31719944 -0.05482616 0.07708654
0.035594855 0.04881832 -0.02098344 -0.07953728 -0.07268245 -0.06587388 -0.002967352 -0.15971585
-0.058369827 -0.0147935515 -0.043197755 0.020949496 -0.004992386 -0.20739962 -0.120147444 -0.052620925
-0.080797866 -0.032512173 -0.03578151 0.005164252 -0.024864929 0.06519286 0.00020458913 -0.016065592
-0.15632726 0.0326915 -0.04042437 -0.00852606 0.020759521 -0.025280224 -0.0023535443 0.032430377
-0.07321381 -0.02980326 -0.040249754 0.014076586 -0.023494763 -0.39651632 -0.17592713 -0.055163626
-0.08205252 -0.2329875 0.06364748 -0.07308781 0.07968141 -0.0985565 -0.0092244055 0.028440766
0.0030293192 -0.038624052 -0.02595547 -0.083927326 -0.025066497 0.05405561 -0.06177014 -0.0045670783
-0.18028456 0.02834925 -0.31066513 -0.046511956 0.01209472 -0.0130976075 -0.1712731 0.045223314
-0.26469424 -0.08390479 -0.1606566 -0.024977507 -0.0668488 0.009209532 0.026017157 0.051994022
-0.42718956 -0.0057948567 -0.0057793586 -0.19729449 0.0651427 0.031144464 -0.109595686 -0.31996757
-0.04633057 0.07871048 0.04510879 -0.033018228 -0.09304621 -0.054201115 -0.056008343 -0.37438816
-0.07013639 -0.080509275 -0.11393914 -0.09917928 -0.0821937 0.034483835 0.01011063 -0.052681804
-0.05063378 -0.029009512 0.083404206 -0.036628194 0.060295034 0.053463083 -0.089283526 0.01510644
-0.24430403 -0.004349264 -0.045045175 0.059222255 -5.782439e-06 0.053135518 0.016070643 -0.22410932
-0.3704019 0.06545321 -0.06521488 -0.1400012 -0.6921974 0.013039252 -0.019650707 -0.00053530495
-0.0005598103 -0.11136535 0.043427695 0.042877845 0.093936585 0.022682568 -0.41434383 0.08528321
0.051933423 0.027923858 0.03220278 0.014680668 0.021552613 0.03682864 0.058160275 -0.13445733
-0.06213636 -0.033344314 0.02286208 -0.034028288 0.028810864 -0.03158859 -0.056005012 -0.08175259
-0.13887057 0.013286944 0.039058674 -0.036135748 0.1415812 -0.119388364 -0.004796191 -0.002934723
-0.02944749 -0.30002144 0.10869521 -0.42578995 -0.04681041 -0.05902687 -0.06144768 -0.0364426
-0.3893989 -0.014146781 0.02232127 0.022713656 -0.032668233 -0.02174386 -0.056818 -0.014103659
-0.025855064 0.025833087 -0.023248496 0.003172102 -0.0509891 -0.045753166 -0.02972163 0.071736135
0.023688165 -0.021591939 0.029262835 -0.036986824 -0.1086454 -0.31063443 -0.26845297 -0.12477164
0.061503924 -0.045695037 -0.07209056 -0.121722944 -0.043307636 0.05247688 -0.04884361 -0.0062797284
0.022233022 0.015520771 0.049047288 0.020333847 -0.07608828 0.03629794 -0.07891078 -0.26539344
-0.0072437255 -0.016429827 -0.022308443 -0.049804818 0.023049414 0.030834734 -0.051552966 0.011858962
0.01081772 -0.099910624 -0.013907349 -0.007299091 -0.026832571 -0.07738354 -0.0039520394 0.017864432
0.06166539 0.0052904175 -0.027487798 0.040050965 -0.0051788893 -0.25047654 -0.10444314 -0.11814073
0.035176307 -0.01878579 -0.07257164 -0.041396234 -0.1655405 0.023918718 -0.07222772 -0.9675415
0.030313937 -0.016235674 -0.021693673 -0.046668082 -0.00022913728 -0.18667015 0.011794113 -0.081077926

fc2.bias f4 [128]
00000000: 10cf 5a3e b1f3 043e 5ab3 813d 2b5e 9fbd
00000010: a81d 7cbd de97 8bbc 057f bfbd 6e5d 47bc
00000020: bc4c f7bd 35bb b03e 3189 e8bd 8815 8ebd
00000030: b44c 90bd 6871 df3d 179f 813d c87f d93d
00000040: 6174 9d3c 01c2 bb3e f1fc e4bd f718 4d3e
00000050: b245 653e 6a32 d1bd 56d6 8d3e faa3 12bd
00000060: cad3 703e 2388 bf3d c03a 993e 860f 013d
00000070: fa02 a9be acd6 e6bd 0209 bb3e 50ef 963e
00000080: c00c bd3d 8bef a73e 8332 273c aac5 283e
00000090: eb85 a83e 2d99 32be f90b 203c 07e1 823e
000000a0: 3e31 a13e 44d2 203e 068a 863d 2ae6 863e
000000b0: de40 03be 1927 dcbd 9c61 a8bd 5226 25be
000000c0: 1bef 5ebd 2334 7d3e e4ea 583e 20fb 9fbc
000000d0: 5e2a 983e e522 bfbd bb75 993e b73d 77bd
000000e0: 174c 48bd a6f7 973d 9d20 07be 36c1 ae3d
000000f0: ca6b f2bd 054c d93e 84f8 29bd a2d4 c9bd
00000100: 63be 2dbd 0863 b5bd e8f1 8a3d 32da db3c
00000110: 0db6 5e3e d94a 1fbd 3233 b53d fb38 c5bd
00000120: 807d 343e cd5a b5bd 3ce5 333e 73ec 5abd
00000130: de42 eabd 20c5 54bd bc74 f4bd c7c9 523e
00000140: 04a8 303e 42f1 edbd 3cc4 12be f389 08be
00000150: e109 883e 21ed 913d 2631 053e 2e1d 2d3a
00000160: 6259 343e d54f 94bc 48fe 613e 0a18 4dbd
00000170: b359 74bd 69a4 9ebc 20f5 6e3c e12b fabd
00000180: 4482 e53e 2500 423e 4d9b a1bd f35e e6bd
00000190: 6dc6 a53e cab8 503e c61d 0f3e d094 cf3d
000001a0: 5c64 eb3e 3ef4 ccbd 3dee a0bd 5d69 3cbd
000001b0: d3e7 8bbd 5e6e 2a3e 5555 30bc f2f6 20be
000001c0: 8da4 543e e46f 17bd 5ca4 5e3e d4e3 d9bc
000001d0: f9af 63bd c081 393e 434e 073d b87c 9ebd
000001e0: d98d 843d 3fd7 99bd 2521 78bc b663 41bd
000001f0: 4a2f 1fbf c148 ebbc 24a1 1abc fca6 e6bd
0.2136805 0.12983586 0.06333037 -0.07781633 -0.06155172 -0.01704019 -0.09350399 -0.0121682715
-0.12075183 0.34517828 -0.11354292 -0.069377005 -0.0704588 0.109103024 0.06329172 0.106200755
0.019220533 0.3667145 -0.11181057 0.20029055 0.22389868 -0.10214694 0.27702588 -0.03580091
0.23518291 0.09352138 0.29927635 0.031508945 -0.33010083 -0.11271414 0.3653031 0.29479456
0.092309475 0.32799944 0.010204914 0.16481653 0.3291467 -0.17441244 0.0097684795 0.25562307
0.3148288 0.1570521 0.06569295 0.26347476 -0.12817714 -0.10749645 -0.082217425 -0.161279
-0.054427247 0.2472692 0.21183354 -0.019528925 0.29719824 -0.093328275 0.29972634 -0.06036159
-0.04890069 0.07420282 -0.13196035 0.08532946 -0.118369654 0.4244081 -0.04149677 -0.098550096
-0.042417895 -0.08856779 0.06784421 0.026837442 0.21749134 -0.03888974 0.08847655 -0.09630009
0.17626 -0.088552095 0.17567915 -0.05344815 -0.11438535 -0.051945806 -0.11936328 0.20584784
0.17251593 -0.11618282 -0.1433267 -0.13333873 0.26570037 0.07125307 0.1300703 0.00066037744
0.17612222 -0.018104473 0.22069657 -0.050071754 -0.059655856 -0.019365506 0.01458481 -0.122154005
0.44825947 0.18945368 -0.078909494 -0.11248579 0.3237795 0.20382991 0.13976201 0.101358056
0.45975006 -0.10007523 -0.0785794 -0.04599892 -0.06831326 0.16643664 -0.010762532 -0.15719202
0.20765896 -0.03697194 0.21742386 -0.026597895 -0.055587742 0.18115902 0.03303362 -0.07738632
0.06472368 -0.07511758 -0.015144621 -0.047214232 -0.6218153 -0.028721215 -0.009437833 -0.112623185

fc3.weight f4 [1, 128]
00000000: 1496 733d da80 c93e 7706 14be 4298 043d
00000010: a6eb 7cbd a4e7 d03d 1fb4 18bd b044 43bd
00000020: 6a4d ff3c 60b5 dc3c 014c 713b f0ae 9abc
00000030: 4144 b53c 1b62 483d 81ee 6c3d 950d 8abe
00000040: 5438 d5bc 52f9 cbbc 2e9a 8abc 68b9 25bc
00000050: b23a 053d 0e52 893b 18bc 603d 19ba 82bc
00000060: d1fd 6ebc 8f52 a9bc 44dc f23c 729d 493d
00000070: f53c 053e 0e8b 75bd 5963 93bc c66b 98bc
00000080: ef65 5bbd 603e 023d 0e09 f53c 0fe1 753e
00000090: 2acc c7bc 1d33 073d 74b3 b3bc abb4 f53c
000000a0: 140a 163d 6274 05bd 1984 bdbd 255f 113d
000000b0: d5df 69bb 71b4 203c 2baf b4bb 8baa 46bd
000000c0: 16a2 1b3d da98 c2bc bfdb 5ebd 21a8 233e
000000d0: 0f4a fbbc 02ec 373c 8833 ecbc c3a5 e5bb
000000e0: d808 5ebc ed80 dbbc 1a79 243c c8ac 24bd
000000f0: 46f5 903a def9 dfbc e006 253e 971d bbbc
00000100: 8d87 8b3c 9618 c9bb ee9d 943c f87a 9cbc
00000110: 8c46 2f3e be32 bc3a 41a1 70bc 390b a33c
00000120: 2558 2f3d b324 19bd b9ea 80bc 2466 273c
00000130: 61ab acbc acb9 843c 4b5f a2bc 541b 00bd
00000140: 2025 873e 03cb 8dbc b931 d8bb 3d38 333c
00000150: d8c3 e0bc 5640 203d dd6e f7bc 8f17 fe3c
00000160: 0e89 903d 0c90 80bc f961 eb3c ea02 b53c
00000170: 895c d33c 91c0 5abd 04a9 f0bc 8489 713b
00000180: 37e5 75bd 86ca fc3c b7ea 10bd 90ca e9ba
00000190: 1b4f e63c ac11 163c 8f70 0cbd 8bf8 803d
000001a0: a9fb 2cbd 4edf 1ebb 5d19 c33d 4475 b13c
000001b0: b367 47bc 5ee8 14bc de07 ec3c 2fbb 2ebb
000001c0: 3529 c7bc f310 4bbc 781c 9ebc 02f2 0ebc
000001d0: add2 893c fe53 823d cab8 a73d b7e3 fe3c
000001e0: 00e5 713d fdce ff3d 8aab d3bc 173e 223d
000001f0: 26be 273d 40ee 9dbd 67cb 00bc 9c68 8dbc
0.059469298 0.39356118 -0.14455591 0.032371767 -0.06174817 0.10200432 -0.03728115 -0.047672927
0.031164844 0.026941955 0.0036818983 -0.018882245 0.022127273 0.048921686 0.057844643 -0.26963487
-0.026027836 -0.024899159 -0.016919222 -0.010115005 0.03252668 0.00419069 0.05486688 -0.015957879
-0.014586882 -0.02066925 0.029646046 0.049222417 0.13011535 -0.059947066 -0.017991709 -0.018606078
-0.05356401 0.031797767 0.029911544 0.24011634 -0.024389345 0.03300773 -0.021936156 0.029993376
0.036630705 -0.032581694 -0.09253711 0.035491128 -0.0035686393 0.009808646 -0.0055140457 -0.048502486
0.037996374 -0.023754526 -0.054408785 0.15982105 -0.030674962 0.011225702 -0.028833166 -0.0070082857
-0.013551913 -0.026794875 0.0100386385 -0.04020384 0.0011059425 -0.027340826 0.16115904 -0.022841258
0.01703241 -0.006136964 0.018141713 -0.019101605 0.17116755 0.0014358384 -0.014686883 0.019902812
0.04280867 -0.037388515 -0.015736924 0.010217223 -0.021077814 0.016201816 -0.01982083 -0.031276062
0.26395512 -0.017308718 -0.0065977243 0.010938701 -0.027437136 0.039123856 -0.03020423 0.031017093
0.07057391 -0.015693687 0.02873324 0.022096116 0.02580096 -0.053406302 -0.029377468 0.0036855647
-0.06003305 0.03085829 -0.03538009 -0.0017836858 0.028113892 0.009159487 -0.03428703 0.06297406
-0.04223219 -0.0024241987 0.09526322 0.021662362 -0.01217072 -0.009088604 0.028812345 -0.0026661863
-0.024311641 -0.012394178 -0.019300684 -0.008724691 0.01682409 0.063636765 0.081895426 0.031114442
0.059056282 0.12490652 -0.025838632 0.039609995 0.040952824 -0.07711458 -0.007860995 -0.017261796
